…
- This IS NOT expected if you are initializing DistilBertForSequenceClassification from the checkpoint of a model that you expect to be exactly identical (initializing a BertForSequenceClassification model from a BertForSequenceClassification model).
Some weights of DistilBertForSequenceClassification were not initialized from the model checkpoint at distilbert-base-uncased and are newly initialized: ['pre_classifier.bias', 'pre_classifier.weight', 'classifier.bias', 'classifier.weight']
You should probably TRAIN this model on a down-stream task to be able to use it for predictions and inference.
DistilBertForSequenceClassification(
  (shared_parameters): ModuleDict()
  (distilbert): DistilBertModel(
    (shared_parameters): ModuleDict()
    (invertible_adapters): ModuleDict()
    (embeddings): Embeddings(
      (word_embeddings): Embedding(30522, 768, padding_idx=0)
      (position_embeddings): Embedding(512, 768)
      (LayerNorm): LayerNorm((768,), eps=1e-12, elementwise_affine=True)
      (dropout): Dropout(p=0.1, inplace=False)
    )
    (transformer): Transformer(
      (layer): ModuleList(
        (0): TransformerBlock(
          (attention): MultiHeadSelfAttention(
            (dropout): Dropout(p=0.1, inplace=False)
            (q_lin): Linear(
              in_features=768, out_features=768, bias=True
              (loras): ModuleDict()
            )
            (k_lin): Linear(
              in_features=768, out_features=768, bias=True
              (loras): ModuleDict()
            )
            (v_lin): Linear(
              in_features=768, out_features=768, bias=True
              (loras): ModuleDict()
            )
            (out_lin): Linear(in_features=768, out_features=768, bias=True)
            (prefix_tuning): PrefixTuningShim(
              (prefix_gates): ModuleDict()
              (pool): PrefixTuningPool(
                (prefix_tunings): ModuleDict()
              )
            )
          )
          (sa_layer_norm): LayerNorm((768,), eps=1e-12, elementwise_affine=True)
          (ffn): FFN(
            (dropout): Dropout(p=0.1, inplace=False)
            (lin1): Linear(
              in_features=768, out_features=3072, bias=True
              (loras): ModuleDict()
            )
            (lin2): Linear(
              in_features=3072, out_features=768, bias=True
              (loras): ModuleDict()
            )
            (activation): GELUActivation()
          )
          (output_layer_norm): LayerNorm((768,), eps=1e-12, elementwise_affine=True)
          (attention_adapters): AdapterLayer(
            (adapters): ModuleDict()
            (adapter_fusion_layer): ModuleDict()
          )
          (output_adapters): AdapterLayer(
            (adapters): ModuleDict()
            (adapter_fusion_layer): ModuleDict()
          )
        )
        (1): TransformerBlock(
          (attention): MultiHeadSelfAttention(
            (dropout): Dropout(p=0.1, inplace=False)
            (q_lin): Linear(
              in_features=768, out_features=768, bias=True
              (loras): ModuleDict()
            )
            (k_lin): Linear(
              in_features=768, out_features=768, bias=True
              (loras): ModuleDict()
            )
            (v_lin): Linear(
              in_features=768, out_features=768, bias=True
              (loras): ModuleDict()
            )
            (out_lin): Linear(in_features=768, out_features=768, bias=True)
            (prefix_tuning): PrefixTuningShim(
              (prefix_gates): ModuleDict()
              (pool): PrefixTuningPool(
                (prefix_tunings): ModuleDict()
              )
            )
          )
          (sa_layer_norm): LayerNorm((768,), eps=1e-12, elementwise_affine=True)
          (ffn): FFN(
            (dropout): Dropout(p=0.1, inplace=False)
            (lin1): Linear(
              in_features=768, out_features=3072, bias=True
              (loras): ModuleDict()
            )
            (lin2): Linear(
              in_features=3072, out_features=768, bias=True
              (loras): ModuleDict()
            )
            (activation): GELUActivation()
          )
          (output_layer_norm): LayerNorm((768,), eps=1e-12, elementwise_affine=True)
          (attention_adapters): AdapterLayer(
            (adapters): ModuleDict()
            (adapter_fusion_layer): ModuleDict()
          )
          (output_adapters): AdapterLayer(
            (adapters): ModuleDict()
            (adapter_fusion_layer): ModuleDict()
          )
        )
        (2): TransformerBlock(
          (attention): MultiHeadSelfAttention(
            (dropout): Dropout(p=0.1, inplace=False)
            (q_lin): Linear(
              in_features=768, out_features=768, bias=True
              (loras): ModuleDict()
            )
            (k_lin): Linear(
              in_features=768, out_features=768, bias=True
              (loras): ModuleDict()
            )
            (v_lin): Linear(
              in_features=768, out_features=768, bias=True
              (loras): ModuleDict()
            )
            (out_lin): Linear(in_features=768, out_features=768, bias=True)
            (prefix_tuning): PrefixTuningShim(
              (prefix_gates): ModuleDict()
              (pool): PrefixTuningPool(
                (prefix_tunings): ModuleDict()
              )
            )
          )
          (sa_layer_norm): LayerNorm((768,), eps=1e-12, elementwise_affine=True)
          (ffn): FFN(
            (dropout): Dropout(p=0.1, inplace=False)
            (lin1): Linear(
              in_features=768, out_features=3072, bias=True
              (loras): ModuleDict()
            )
            (lin2): Linear(
              in_features=3072, out_features=768, bias=True
              (loras): ModuleDict()
            )
            (activation): GELUActivation()
          )
          (output_layer_norm): LayerNorm((768,), eps=1e-12, elementwise_affine=True)
          (attention_adapters): AdapterLayer(
            (adapters): ModuleDict()
            (adapter_fusion_layer): ModuleDict()
          )
          (output_adapters): AdapterLayer(
            (adapters): ModuleDict()
            (adapter_fusion_layer): ModuleDict()
          )
        )
        (3): TransformerBlock(
          (attention): MultiHeadSelfAttention(
            (dropout): Dropout(p=0.1, inplace=False)
            (q_lin): Linear(
              in_features=768, out_features=768, bias=True
              (loras): ModuleDict()
            )
            (k_lin): Linear(
              in_features=768, out_features=768, bias=True
              (loras): ModuleDict()
            )
            (v_lin): Linear(
              in_features=768, out_features=768, bias=True
              (loras): ModuleDict()
            )
            (out_lin): Linear(in_features=768, out_features=768, bias=True)
            (prefix_tuning): PrefixTuningShim(
              (prefix_gates): ModuleDict()
              (pool): PrefixTuningPool(
                (prefix_tunings): ModuleDict()
              )
            )
          )
          (sa_layer_norm): LayerNorm((768,), eps=1e-12, elementwise_affine=True)
          (ffn): FFN(
            (dropout): Dropout(p=0.1, inplace=False)
            (lin1): Linear(
              in_features=768, out_features=3072, bias=True
              (loras): ModuleDict()
            )
            (lin2): Linear(
              in_features=3072, out_features=768, bias=True
              (loras): ModuleDict()
            )
            (activation): GELUActivation()
          )
          (output_layer_norm): LayerNorm((768,), eps=1e-12, elementwise_affine=True)
          (attention_adapters): AdapterLayer(
            (adapters): ModuleDict()
            (adapter_fusion_layer): ModuleDict()
          )
          (output_adapters): AdapterLayer(
            (adapters): ModuleDict()
            (adapter_fusion_layer): ModuleDict()
          )
        )
        (4): TransformerBlock(
          (attention): MultiHeadSelfAttention(
            (dropout): Dropout(p=0.1, inplace=False)
            (q_lin): Linear(
              in_features=768, out_features=768, bias=True
              (loras): ModuleDict()
            )
            (k_lin): Linear(
              in_features=768, out_features=768, bias=True
              (loras): ModuleDict()
            )
            (v_lin): Linear(
              in_features=768, out_features=768, bias=True
              (loras): ModuleDict()
            )
            (out_lin): Linear(in_features=768, out_features=768, bias=True)
            (prefix_tuning): PrefixTuningShim(
              (prefix_gates): ModuleDict()
              (pool): PrefixTuningPool(
                (prefix_tunings): ModuleDict()
              )
            )
          )
          (sa_layer_norm): LayerNorm((768,), eps=1e-12, elementwise_affine=True)
          (ffn): FFN(
            (dropout): Dropout(p=0.1, inplace=False)
            (lin1): Linear(
              in_features=768, out_features=3072, bias=True
              (loras): ModuleDict()
            )
            (lin2): Linear(
              in_features=3072, out_features=768, bias=True
              (loras): ModuleDict()
            )
            (activation): GELUActivation()
          )
          (output_layer_norm): LayerNorm((768,), eps=1e-12, elementwise_affine=True)
          (attention_adapters): AdapterLayer(
            (adapters): ModuleDict()
            (adapter_fusion_layer): ModuleDict()
          )
          (output_adapters): AdapterLayer(
            (adapters): ModuleDict()
            (adapter_fusion_layer): ModuleDict()
          )
        )
        (5): TransformerBlock(
          (attention): MultiHeadSelfAttention(
            (dropout): Dropout(p=0.1, inplace=False)
            (q_lin): Linear(
              in_features=768, out_features=768, bias=True
              (loras): ModuleDict()
            )
            (k_lin): Linear(
              in_features=768, out_features=768, bias=True
              (loras): ModuleDict()
            )
            (v_lin): Linear(
              in_features=768, out_features=768, bias=True
              (loras): ModuleDict()
            )
            (out_lin): Linear(in_features=768, out_features=768, bias=True)
            (prefix_tuning): PrefixTuningShim(
              (prefix_gates): ModuleDict()
              (pool): PrefixTuningPool(
                (prefix_tunings): ModuleDict()
              )
            )
          )
          (sa_layer_norm): LayerNorm((768,), eps=1e-12, elementwise_affine=True)
          (ffn): FFN(
            (dropout): Dropout(p=0.1, inplace=False)
            (lin1): Linear(
              in_features=768, out_features=3072, bias=True
              (loras): ModuleDict()
            )
            (lin2): Linear(
              in_features=3072, out_features=768, bias=True
              (loras): ModuleDict()
            )
            (activation): GELUActivation()
          )
          (output_layer_norm): LayerNorm((768,), eps=1e-12, elementwise_affine=True)
          (attention_adapters): AdapterLayer(
            (adapters): ModuleDict()
            (adapter_fusion_layer): ModuleDict()
          )
          (output_adapters): AdapterLayer(
            (adapters): ModuleDict()
            (adapter_fusion_layer): ModuleDict()
          )
        )
      )
    )
    (prefix_tuning): PrefixTuningPool(
      (prefix_tunings): ModuleDict()
    )
  )
  (pre_classifier): Linear(in_features=768, out_features=768, bias=True)
  (classifier): Linear(in_features=768, out_features=4, bias=True)
  (dropout): Dropout(p=0.2, inplace=False)
)36814 2023-02-16,23:36:17.305 - {initializer.py (66)} - create_model(): DistilBertForSequenceClassification(
  (shared_parameters): ModuleDict()
  (distilbert): DistilBertModel(
    (shared_parameters): ModuleDict()
    (invertible_adapters): ModuleDict()
    (embeddings): Embeddings(
      (word_embeddings): Embedding(30522, 768, padding_idx=0)
      (position_embeddings): Embedding(512, 768)
      (LayerNorm): LayerNorm((768,), eps=1e-12, elementwise_affine=True)
      (dropout): Dropout(p=0.1, inplace=False)
    )
    (transformer): Transformer(
      (layer): ModuleList(
        (0): TransformerBlock(
          (attention): MultiHeadSelfAttention(
            (dropout): Dropout(p=0.1, inplace=False)
            (q_lin): Linear(
              in_features=768, out_features=768, bias=True
              (loras): ModuleDict()
            )
            (k_lin): Linear(
              in_features=768, out_features=768, bias=True
              (loras): ModuleDict()
            )
            (v_lin): Linear(
              in_features=768, out_features=768, bias=True
              (loras): ModuleDict()
            )
            (out_lin): Linear(in_features=768, out_features=768, bias=True)
            (prefix_tuning): PrefixTuningShim(
              (prefix_gates): ModuleDict()
              (pool): PrefixTuningPool(
                (prefix_tunings): ModuleDict()
              )
            )
          )
          (sa_layer_norm): LayerNorm((768,), eps=1e-12, elementwise_affine=True)
          (ffn): FFN(
            (dropout): Dropout(p=0.1, inplace=False)
            (lin1): Linear(
              in_features=768, out_features=3072, bias=True
              (loras): ModuleDict()
            )
            (lin2): Linear(
              in_features=3072, out_features=768, bias=True
              (loras): ModuleDict()
            )
            (activation): GELUActivation()
          )
          (output_layer_norm): LayerNorm((768,), eps=1e-12, elementwise_affine=True)
          (attention_adapters): AdapterLayer(
            (adapters): ModuleDict()
            (adapter_fusion_layer): ModuleDict()
          )
          (output_adapters): AdapterLayer(
            (adapters): ModuleDict()
            (adapter_fusion_layer): ModuleDict()
          )
        )
        (1): TransformerBlock(
          (attention): MultiHeadSelfAttention(
            (dropout): Dropout(p=0.1, inplace=False)
            (q_lin): Linear(
              in_features=768, out_features=768, bias=True
              (loras): ModuleDict()
            )
            (k_lin): Linear(
              in_features=768, out_features=768, bias=True
              (loras): ModuleDict()
            )
            (v_lin): Linear(
              in_features=768, out_features=768, bias=True
              (loras): ModuleDict()
            )
            (out_lin): Linear(in_features=768, out_features=768, bias=True)
            (prefix_tuning): PrefixTuningShim(
              (prefix_gates): ModuleDict()
              (pool): PrefixTuningPool(
                (prefix_tunings): ModuleDict()
              )
            )
          )
          (sa_layer_norm): LayerNorm((768,), eps=1e-12, elementwise_affine=True)
          (ffn): FFN(
            (dropout): Dropout(p=0.1, inplace=False)
            (lin1): Linear(
              in_features=768, out_features=3072, bias=True
              (loras): ModuleDict()
            )
            (lin2): Linear(
              in_features=3072, out_features=768, bias=True
              (loras): ModuleDict()
            )
            (activation): GELUActivation()
          )
          (output_layer_norm): LayerNorm((768,), eps=1e-12, elementwise_affine=True)
          (attention_adapters): AdapterLayer(
            (adapters): ModuleDict()
            (adapter_fusion_layer): ModuleDict()
          )
          (output_adapters): AdapterLayer(
            (adapters): ModuleDict()
            (adapter_fusion_layer): ModuleDict()
          )
        )
        (2): TransformerBlock(
          (attention): MultiHeadSelfAttention(
            (dropout): Dropout(p=0.1, inplace=False)
            (q_lin): Linear(
              in_features=768, out_features=768, bias=True
              (loras): ModuleDict()
            )
            (k_lin): Linear(
              in_features=768, out_features=768, bias=True
              (loras): ModuleDict()
            )
            (v_lin): Linear(
              in_features=768, out_features=768, bias=True
              (loras): ModuleDict()
            )
            (out_lin): Linear(in_features=768, out_features=768, bias=True)
            (prefix_tuning): PrefixTuningShim(
              (prefix_gates): ModuleDict()
              (pool): PrefixTuningPool(
                (prefix_tunings): ModuleDict()
              )
            )
          )
          (sa_layer_norm): LayerNorm((768,), eps=1e-12, elementwise_affine=True)
          (ffn): FFN(
            (dropout): Dropout(p=0.1, inplace=False)
            (lin1): Linear(
              in_features=768, out_features=3072, bias=True
              (loras): ModuleDict()
            )
            (lin2): Linear(
              in_features=3072, out_features=768, bias=True
              (loras): ModuleDict()
            )
            (activation): GELUActivation()
          )
          (output_layer_norm): LayerNorm((768,), eps=1e-12, elementwise_affine=True)
          (attention_adapters): AdapterLayer(
            (adapters): ModuleDict()
            (adapter_fusion_layer): ModuleDict()
          )
          (output_adapters): AdapterLayer(
            (adapters): ModuleDict()
            (adapter_fusion_layer): ModuleDict()
          )
        )
        (3): TransformerBlock(
          (attention): MultiHeadSelfAttention(
            (dropout): Dropout(p=0.1, inplace=False)
            (q_lin): Linear(
              in_features=768, out_features=768, bias=True
              (loras): ModuleDict()
            )
            (k_lin): Linear(
              in_features=768, out_features=768, bias=True
              (loras): ModuleDict()
            )
            (v_lin): Linear(
              in_features=768, out_features=768, bias=True
              (loras): ModuleDict()
            )
            (out_lin): Linear(in_features=768, out_features=768, bias=True)
            (prefix_tuning): PrefixTuningShim(
              (prefix_gates): ModuleDict()
              (pool): PrefixTuningPool(
                (prefix_tunings): ModuleDict()
              )
            )
          )
          (sa_layer_norm): LayerNorm((768,), eps=1e-12, elementwise_affine=True)
          (ffn): FFN(
            (dropout): Dropout(p=0.1, inplace=False)
            (lin1): Linear(
              in_features=768, out_features=3072, bias=True
              (loras): ModuleDict()
            )
            (lin2): Linear(
              in_features=3072, out_features=768, bias=True
              (loras): ModuleDict()
            )
            (activation): GELUActivation()
          )
          (output_layer_norm): LayerNorm((768,), eps=1e-12, elementwise_affine=True)
          (attention_adapters): AdapterLayer(
            (adapters): ModuleDict()
            (adapter_fusion_layer): ModuleDict()
          )
          (output_adapters): AdapterLayer(
            (adapters): ModuleDict()
            (adapter_fusion_layer): ModuleDict()
          )
        )
        (4): TransformerBlock(
          (attention): MultiHeadSelfAttention(
            (dropout): Dropout(p=0.1, inplace=False)
            (q_lin): Linear(
              in_features=768, out_features=768, bias=True
              (loras): ModuleDict()
            )
            (k_lin): Linear(
              in_features=768, out_features=768, bias=True
              (loras): ModuleDict()
            )
            (v_lin): Linear(
              in_features=768, out_features=768, bias=True
              (loras): ModuleDict()
            )
            (out_lin): Linear(in_features=768, out_features=768, bias=True)
            (prefix_tuning): PrefixTuningShim(
              (prefix_gates): ModuleDict()
              (pool): PrefixTuningPool(
                (prefix_tunings): ModuleDict()
              )
            )
          )
          (sa_layer_norm): LayerNorm((768,), eps=1e-12, elementwise_affine=True)
          (ffn): FFN(
            (dropout): Dropout(p=0.1, inplace=False)
            (lin1): Linear(
              in_features=768, out_features=3072, bias=True
              (loras): ModuleDict()
            )
            (lin2): Linear(
              in_features=3072, out_features=768, bias=True
              (loras): ModuleDict()
            )
            (activation): GELUActivation()
          )
          (output_layer_norm): LayerNorm((768,), eps=1e-12, elementwise_affine=True)
          (attention_adapters): AdapterLayer(
            (adapters): ModuleDict()
            (adapter_fusion_layer): ModuleDict()
          )
          (output_adapters): AdapterLayer(
            (adapters): ModuleDict()
            (adapter_fusion_layer): ModuleDict()
          )
        )
        (5): TransformerBlock(
          (attention): MultiHeadSelfAttention(
            (dropout): Dropout(p=0.1, inplace=False)
            (q_lin): Linear(
              in_features=768, out_features=768, bias=True
              (loras): ModuleDict()
            )
            (k_lin): Linear(
              in_features=768, out_features=768, bias=True
              (loras): ModuleDict()
            )
            (v_lin): Linear(
              in_features=768, out_features=768, bias=True
              (loras): ModuleDict()
            )
            (out_lin): Linear(in_features=768, out_features=768, bias=True)
            (prefix_tuning): PrefixTuningShim(
              (prefix_gates): ModuleDict()
              (pool): PrefixTuningPool(
                (prefix_tunings): ModuleDict()
              )
            )
          )
          (sa_layer_norm): LayerNorm((768,), eps=1e-12, elementwise_affine=True)
          (ffn): FFN(
            (dropout): Dropout(p=0.1, inplace=False)
            (lin1): Linear(
              in_features=768, out_features=3072, bias=True
              (loras): ModuleDict()
            )
            (lin2): Linear(
              in_features=3072, out_features=768, bias=True
              (loras): ModuleDict()
            )
            (activation): GELUActivation()
          )
          (output_layer_norm): LayerNorm((768,), eps=1e-12, elementwise_affine=True)
          (attention_adapters): AdapterLayer(
            (adapters): ModuleDict()
            (adapter_fusion_layer): ModuleDict()
          )
          (output_adapters): AdapterLayer(
            (adapters): ModuleDict()
            (adapter_fusion_layer): ModuleDict()
          )
        )
      )
    )
    (prefix_tuning): PrefixTuningPool(
      (prefix_tunings): ModuleDict()
    )
  )
  (pre_classifier): Linear(in_features=768, out_features=768, bias=True)
  (classifier): Linear(in_features=768, out_features=4, bias=True)
  (dropout): Dropout(p=0.2, inplace=False)
)
36814 2023-02-16,23:36:17.370 - {base_data_manager.py (306)} - _load_data_loader_from_cache():  Loading features from cached file cache_dir/distilbert_distilbert-base-uncased_cached_64_ClassificationModel_agnews_uniform_-1
37152 2023-02-16,23:36:17.851 - {main_tc.py (37)} - <module>(): Namespace(data_file_path
…
