…
- This IS NOT expected if you are initializing DistilBertForSequenceClassification from the checkpoint of a model that you expect to be exactly identical (initializing a BertForSequenceClassification model from a BertForSequenceClassification model).
Some weights of DistilBertForSequenceClassification were not initialized from the model checkpoint at distilbert-base-uncased and are newly initialized: ['pre_classifier.bias', 'pre_classifier.weight', 'classifier.bias', 'classifier.weight']
You should probably TRAIN this model on a down-stream task to be able to use it for predictions and inference.
DistilBertForSequenceClassification(
  (shared_parameters): ModuleDict()
  (distilbert): DistilBertModel(
    (shared_parameters): ModuleDict()
    (invertible_adapters): ModuleDict()
    (embeddings): Embeddings(
      (word_embeddings): Embedding(30522, 768, padding_idx=0)
      (position_embeddings): Embedding(512, 768)
      (LayerNorm): LayerNorm((768,), eps=1e-12, elementwise_affine=True)
      (dropout): Dropout(p=0.1, inplace=False)
    )
    (transformer): Transformer(
      (layer): ModuleList(
        (0-5): 6 x TransformerBlock(
          (attention): MultiHeadSelfAttention(
            (dropout): Dropout(p=0.1, inplace=False)
            (q_lin): Linear(in_features=768, out_features=768, bias=True)
            (k_lin): Linear(in_features=768, out_features=768, bias=True)
            (v_lin): Linear(in_features=768, out_features=768, bias=True)
            (out_lin): Linear(in_features=768, out_features=768, bias=True)
            (prefix_tuning): PrefixTuningShim(
              (prefix_gates): ModuleDict()
              (pool): PrefixTuningPool(
                (prefix_tunings): ModuleDict()
              )
            )
          )
          (sa_layer_norm): LayerNorm((768,), eps=1e-12, elementwise_affine=True)
          (ffn): FFN(
            (dropout): Dropout(p=0.1, inplace=False)
            (lin1): Linear(in_features=768, out_features=3072, bias=True)
            (lin2): Linear(in_features=3072, out_features=768, bias=True)
            (activation): GELUActivation()
          )
          (output_layer_norm): LayerNorm((768,), eps=1e-12, elementwise_affine=True)
          (attention_adapters): AdapterLayer(
            (adapters): ModuleDict()
            (adapter_fusion_layer): ModuleDict()
          )
          (output_adapters): AdapterLayer(
            (adapters): ModuleDict()
            (adapter_fusion_layer): ModuleDict()
          )
        )
      )
    )
    (prefix_tuning): PrefixTuningPool(
      (prefix_tunings): ModuleDict()
    )
  )
  (pre_classifier): Linear(in_features=768, out_features=768, bias=True)
  (classifier): Linear(in_features=768, out_features=4, bias=True)
  (dropout): Dropout(p=0.2, inplace=False)
)
DistilBertForSequenceClassification(
  (shared_parameters): ModuleDict()
  (distilbert): DistilBertModel(
    (shared_parameters): ModuleDict()
    (invertible_adapters): ModuleDict()
    (embeddings): Embeddings(
      (word_embeddings): Embedding(30522, 768, padding_idx=0)
      (position_embeddings): Embedding(512, 768)
      (LayerNorm): LayerNorm((768,), eps=1e-12, elementwise_affine=True)
      (dropout): Dropout(p=0.1, inplace=False)
    )
    (transformer): Transformer(
      (layer): ModuleList(
        (0-5): 6 x TransformerBlock(
          (attention): MultiHeadSelfAttention(
            (dropout): Dropout(p=0.1, inplace=False)
            (q_lin): Linear(in_features=768, out_features=768, bias=True)
            (k_lin): Linear(in_features=768, out_features=768, bias=True)
            (v_lin): Linear(in_features=768, out_features=768, bias=True)
            (out_lin): Linear(in_features=768, out_features=768, bias=True)
            (prefix_tuning): PrefixTuningShim(
              (prefix_gates): ModuleDict()
              (pool): PrefixTuningPool(
                (prefix_tunings): ModuleDict()
              )
            )
          )
          (sa_layer_norm): LayerNorm((768,), eps=1e-12, elementwise_affine=True)
          (ffn): FFN(
            (dropout): Dropout(p=0.1, inplace=False)
            (lin1): Linear(in_features=768, out_features=3072, bias=True)
            (lin2): Linear(in_features=3072, out_features=768, bias=True)
            (activation): GELUActivation()
          )
          (output_layer_norm): LayerNorm((768,), eps=1e-12, elementwise_affine=True)
          (attention_adapters): AdapterLayer(
            (adapters): ModuleDict()
            (adapter_fusion_layer): ModuleDict()
          )
          (output_adapters): AdapterLayer(
            (adapters): ModuleDict()
            (adapter_fusion_layer): ModuleDict()
          )
        )
      )
    )
    (prefix_tuning): PrefixTuningPool(
      (prefix_tunings): ModuleDict()
    )
  )
  (pre_classifier): Linear(in_features=768, out_features=768, bias=True)
  (classifier): Linear(in_features=768, out_features=4, bias=True)
  (dropout): Dropout(p=0.2, inplace=False)
)
17466 2023-08-23,14:55:13.932 - {base_data_manager.py (361)} - _load_data_loader_from_cache():  Loading features from cached file cache_dir/distilbert_distilbert-base-uncased_cached_64_ClassificationModel_agnews_uniform_client_1000_-1
17466 2023-08-23,14:55:14.280 - {base_data_manager.py (151)} - _load_federated_data_server(): test data size 7600
…
